…
hand__add_new_class__new_sit__n_100/confusion_matrix.png,"[5, 6, 7, 8, 9, 10, 11, 12]",64,True,hand_dummy/data,64,True,"['go', 'stop', 'left', 'right', 'null', 'sit']",sit,100.0,6,False,True,64,"[112, 112]",True,41,0.9777777777777776,0.1007464786370595,No val loss improvement > 0.0001 for 10 consecutive epochs.,True,expand_from_checkpoint,./logger_add_function/20260320_184030__ADDCLS_CNN__lr_1e-04__ep_400__body+hand__add_new_class__new_sit__n_100/loss_curve.png,"GestureCNNClassifier(
  (encoder): MultiModalEarlyFusionEncoder(
    (body_encoder): BodyEncoder(
      (net): Sequential(
        (0): Linear(in_features=16, out_features=32, bias=True)
        (1): ReLU(inplace=True)
      )
    )
    (hand_encoder): HandEncoder(
      (net): Sequential(
        (0): Linear(in_features=42, out_features=32, bias=True)
        (1): ReLU(inplace=True)
      )
    )
  )
  (temporal_conv): Sequential(
    (0): Conv1d(64, 128, kernel_size=(3,), stride=(1,), padding=(1,))
    (1): BatchNorm1d(128, eps=1e-05, momentum=0.1, affine=True, track_running_stats=True)
    (2): ReLU(inplace=True)
    (3): Dropout(p=0.2, inplace=False)
    (4): Conv1d(128, 128, kernel_size=(3,), stride=(1,), padding=(1,))
    (5): BatchNorm1d(128, eps=1e-05, momentum=0.1, affine=True, track_running_stats=True)
    (6): ReLU(inplace=True)
    (7): Dropout(p=0.2, inplace=False)
    (8): Conv1d(128, 128, kernel_size=(3,), stride=(1,), padding=(1,))
    (9): BatchNorm1d(128, eps=1e-05, momentum=0.1, affine=True, track_running_stats=True)
    (10): ReLU(inplace=True)
    (11): AdaptiveAvgPool1d(output_size=1)
  )
  (classifier): Sequential(
    (0): Linear(in_features=128, out_features=128, bias=True)
    (1): ReLU(inplace=True)
    (2): Dropout(p=0.3, inplace=False)
    (3): Linear(in_features=128, out_features=6, bias=True)
  )
)",143238,143238,sit,100.0,./logger_add_function/20260320_184030__ADDCLS_CNN__lr_1e-04__ep_400__body+hand__add_new_class__new_sit__n_100/best_model.pt,./logger_add_function/20260320_184030__ADDCLS_CNN__lr_1e-04__ep_400__body+hand__add_new_class__new_sit__n_100,./logger_add_function/20260320_184030__ADDCLS_CNN__lr_1e-04__ep_400__body+hand__add_new_cla
…
