…
,"['go', 'stop', 'left', 'right', 'null']",5,True,True,False,True,64,"[112, 112]",True,8,0.8290598290598291,0.5646116748834268,No val loss improvement > 0.0001 for 10 consecutive epochs.,True,25,0.8,0.4984467840194702,0.8162393162393162,0.6351542989285583,./logger_finetuning/20260320_182507__FT_CNN__lr_0p01__ep_200__body+hand__classifier_head_only__n_25/loss_curve.png,finetuning,32,128,0.2,128,0.3,32,False,0.2,128,2,CNN,True,True,64,freeze_all_except_classifier,"GestureCNNClassifier(
  (encoder): MultiModalEarlyFusionEncoder(
    (body_encoder): BodyEncoder(
      (net): Sequential(
        (0): Linear(in_features=16, out_features=32, bias=True)
        (1): ReLU(inplace=True)
      )
    )
    (hand_encoder): HandEncoder(
      (net): Sequential(
        (0): Linear(in_features=42, out_features=32, bias=True)
        (1): ReLU(inplace=True)
      )
    )
  )
  (temporal_conv): Sequential(
    (0): Conv1d(64, 128, kernel_size=(3,), stride=(1,), padding=(1,))
    (1): BatchNorm1d(128, eps=1e-05, momentum=0.1, affine=True, track_running_stats=True)
    (2): ReLU(inplace=True)
    (3): Dropout(p=0.2, inplace=False)
    (4): Conv1d(128, 128, kernel_size=(3,), stride=(1,), padding=(1,))
    (5): BatchNorm1d(128, eps=1e-05, momentum=0.1, affine=True, track_running_stats=True)
    (6): ReLU(inplace=True)
    (7): Dropout(p=0.2, inplace=False)
    (8): Conv1d(128, 128, kernel_size=(3,), stride=(1,), padding=(1,))
    (9): BatchNorm1d(128, eps=1e-05, momentum=0.1, affine=True, track_running_stats=True)
    (10): ReLU(inplace=True)
    (11): AdaptiveAvgPool1d(output_size=1)
  )
  (classifier): Sequential(
    (0): Linear(in_features=128, out_features=128, bias=True)
    (1): ReLU(inplace=True)
    (2): Dropout(p=0.3, inplace=False)
    (3): Linear(in_features=128, out_features=5, bias=True)
  )
)",143109,17157,./logger_finetuning/best_finetune__CNN__lr_0p01__ep_200__n_25__body+hand.pt,./logger_finetuning/20260320_182507__FT_CNN__lr_0p01__ep_200__body+hand__classifier_head_only__n_25,./logger_finetuning/20260320_182507__FT_CNN__lr_0p01__ep_200__body+hand__classifier_head_only__n_25,classifier_head_only,finetuning,2026-03-20T18:25:07.606187,2
…
