…
03-20T17:13:34.896654,classifier_head_only,finetuning,./logger/20260320_152934__CNN__lr_1e-04__ep_400__body+hand__early_fusion,./logger/20260320_152934__CNN__lr_1e-04__ep_400__body+hand__early_fusion/best_model.pt,CNN,./hand_dummy/finetune,"['go', 'stop', 'left', 'right', 'null']",5,False,True,True,"[5, 6, 7, 8, 9, 10, 11, 12]","[112, 112]",True,64,64,64,True,True,40,42,True,4,0,CNN,64,True,32,True,32,128,2,0.2,False,128,0.2,128,0.3,freeze_all_except_classifier,"GestureCNNClassifier(
  (encoder): MultiModalEarlyFusionEncoder(
    (body_encoder): BodyEncoder(
      (net): Sequential(
        (0): Linear(in_features=16, out_features=32, bias=True)
        (1): ReLU(inplace=True)
      )
    )
    (hand_encoder): HandEncoder(
      (net): Sequential(
        (0): Linear(in_features=42, out_features=32, bias=True)
        (1): ReLU(inplace=True)
      )
    )
  )
  (temporal_conv): Sequential(
    (0): Conv1d(64, 128, kernel_size=(3,), stride=(1,), padding=(1,))
    (1): BatchNorm1d(128, eps=1e-05, momentum=0.1, affine=True, track_running_stats=True)
    (2): ReLU(inplace=True)
    (3): Dropout(p=0.2, inplace=False)
    (4): Conv1d(128, 128, kernel_size=(3,), stride=(1,), padding=(1,))
    (5): BatchNorm1d(128, eps=1e-05, momentum=0.1, affine=True, track_running_stats=True)
    (6): ReLU(inplace=True)
    (7): Dropout(p=0.2, inplace=False)
    (8): Conv1d(128, 128, kernel_size=(3,), stride=(1,), padding=(1,))
    (9): BatchNorm1d(128, eps=1e-05, momentum=0.1, affine=True, track_running_stats=True)
    (10): ReLU(inplace=True)
    (11): AdaptiveAvgPool1d(output_size=1)
  )
  (classifier): Sequential(
    (0): Linear(in_features=128, out_features=128, bias=True)
    (1): ReLU(inplace=True)
    (2): Dropout(p=0.3, inplace=False)
    (3): Linear(in_features=128, out_features=5, bias=True)
  )
)",143109,17157,cuda,15,0.0001,0.0001,False,True,./logger_finetuning/20260320_171334__FT_CNN__lr_1e-04__ep_15__body+hand__classifier_head_only__n_40,./logger_finetuning/best_finetune__CNN__lr_0p0001__ep_15__n_40__body+hand.pt
