…
  "model": {
    "MODEL_TYPE": "CNN",
    "VIDEO_FEATURE_DIM": 64,
    "USE_BODY_MLP": true,
    "BODY_FEATURE_DIM": 32,
    "USE_HAND_MLP": true,
    "HAND_FEATURE_DIM": 32,
    "LSTM_HIDDEN_DIM": 128,
    "LSTM_NUM_LAYERS": 2,
    "LSTM_DROPOUT": 0.2,
    "LSTM_BIDIRECTIONAL": false,
    "CNN_HIDDEN_DIM": 128,
    "CNN_DROPOUT": 0.2,
    "CLASSIFIER_HIDDEN_DIM": 128,
    "DROPOUT": 0.3,
    "finetune_strategy": "freeze_all_except_classifier",
    "model_structure": "GestureCNNClassifier(\n  (encoder): MultiModalEarlyFusionEncoder(\n    (body_encoder): BodyEncoder(\n      (net): Sequential(\n        (0): Linear(in_features=16, out_features=32, bias=True)\n        (1): ReLU(inplace=True)\n      )\n    )\n    (hand_encoder): HandEncoder(\n      (net): Sequential(\n        (0): Linear(in_features=42, out_features=32, bias=True)\n        (1): ReLU(inplace=True)\n      )\n    )\n  )\n  (temporal_conv): Sequential(\n    (0): Conv1d(64, 128, kernel_size=(3,), stride=(1,), padding=(1,))\n    (1): BatchNorm1d(128, eps=1e-05, momentum=0.1, affine=True, track_running_stats=True)\n    (2): ReLU(inplace=True)\n    (3): Dropout(p=0.2, inplace=False)\n    (4): Conv1d(128, 128, kernel_size=(3,), stride=(1,), padding=(1,))\n    (5): BatchNorm1d(128, eps=1e-05, momentum=0.1, affine=True, track_running_stats=True)\n    (6): ReLU(inplace=True)\n    (7): Dropout(p=0.2, inplace=False)\n    (8): Conv1d(128, 128, kernel_size=(3,), stride=(1,), padding=(1,))\n    (9): BatchNorm1d(128, eps=1e-05, momentum=0.1, affine=True, track_running_stats=True)\n    (10): ReLU(inplace=True)\n    (11): AdaptiveAvgPool1d(output_size=1)\n  )\n  (classifier): Sequential(\n    (0): Linear(in_features=128, out_features=128, bias=True)\n    (1): ReLU(inplace=True)\n    (2): Dropout(p=0.3, inplace=False)\n    (3): Linear(in_features=128, out_features=5, bias=True)\n  )\n)",
    "total_parameters": 143109,
    "trainable_parameters": 17157
  },
  "training": {
    "DEVICE": "cuda",
    "INFERENCE_ONLY": false,
    "FINETUNE_EPOCHS": 200,
    "FINETUNE_LEARNING_RATE": 0.01,
    "FINETUNE_WEIGHT_DECAY": 0.0001,
    "FINETUNE_USE_CLASS_WEIGHTS": false,
    "FINETUNE_USE_LR_SCHEDULER": true,
    "EARLY_STOPPING_PATIENCE": 20,
…
