…
./logger/20260320_152516__CNN__lr_1e-04__ep_400__hand__early_fusion/accuracy_curve.png,./logger/20260320_152516__CNN__lr_1e-04__ep_400__hand__early_fusion/best_model.pt,./logger/20260320_152516__CNN__lr_1e-04__ep_400__hand__early_fusion/confusion_matrix.png,16,"[5, 6, 7, 8, 9, 10, 11, 12]",64,False,hand_dummy/data,64,True,"['go', 'stop', 'left', 'right', 'null']",5,0,42,True,True,0.15,0.7,True,0.15,True,False,True,64,"[112, 112]",./logger/20260320_152516__CNN__lr_1e-04__ep_400__hand__early_fusion/loss_curve.png,32,128,0.2,128,0.3,32,False,0.2,128,2,CNN,True,True,64,"GestureCNNClassifier(
  (encoder): MultiModalEarlyFusionEncoder(
    (hand_encoder): HandEncoder(
      (net): Sequential(
        (0): Linear(in_features=42, out_features=32, bias=True)
        (1): ReLU(inplace=True)
      )
    )
  )
  (temporal_conv): Sequential(
    (0): Conv1d(32, 128, kernel_size=(3,), stride=(1,), padding=(1,))
    (1): BatchNorm1d(128, eps=1e-05, momentum=0.1, affine=True, track_running_stats=True)
    (2): ReLU(inplace=True)
    (3): Dropout(p=0.2, inplace=False)
    (4): Conv1d(128, 128, kernel_size=(3,), stride=(1,), padding=(1,))
    (5): BatchNorm1d(128, eps=1e-05, momentum=0.1, affine=True, track_running_stats=True)
    (6): ReLU(inplace=True)
    (7): Dropout(p=0.2, inplace=False)
    (8): Conv1d(128, 128, kernel_size=(3,), stride=(1,), padding=(1,))
    (9): BatchNorm1d(128, eps=1e-05, momentum=0.1, affine=True, track_running_stats=True)
    (10): ReLU(inplace=True)
    (11): AdaptiveAvgPool1d(output_size=1)
  )
  (classifier): Sequential(
    (0): Linear(in_features=128, out_features=128, bias=True)
    (1): ReLU(inplace=True)
    (2): Dropout(p=0.3, inplace=False)
    (3): Linear(in_features=128, out_features=5, bias=True)
  )
)",130277,130277,./gesture_checkpoints/best_cnn_early_fusion.pt,./logger/20260320_152516__CNN__lr_1e-04__ep_400__hand__early_fusion,./logger/20260320_152516__CNN__lr_1e-04__ep_400__hand__early_fusion,early_fusion,2026-03-20T15:25:16.250490,20260320_152516__CNN__lr_1e-04__ep_400__hand__early_fusion,0.9473684210526316,0.9468356374807988,0.9477514350392108,0.1597929463574761,0.9559210526315788,0.9544234764542936,0.9442307692307692,0.9473684210526316,0.994269340974212,0.0677384263101997,cuda,400,0.0001,False,True,0.0001,0.96,0.1584037845830122
./logger/20260320_152647__CNN__lr_1e-04__ep_400__body__early_fusion/accuracy_curve.png,./logger/20260320_152647__CNN__lr_1e-04__ep_400__body__early_fusion/best_model.pt,./logger/20260320_152647__CNN__lr_1e-04__ep_400__body__early_fusion/confusion_matrix.png,16,"[5, 6, 7, 8, 9, 10, 11, 12]",64,True,hand_dummy/data,64,False,"['go', 'stop', 'left', 'right', 'null']",5,0,42,True,True,0.15,0.7,True,0.15,True,False,True,64,"[112, 112]",./logger/20260320_152647__CNN__lr_1e-04__ep_400__body__early_fusion/loss_curve.png,32,128,0.2,128,0.3,32,False,0.2,128,2,CNN,True,True,64,"GestureCNNClassifier(
  (encoder): MultiModalEarlyFusionEncoder(
    (body_encoder): BodyEncoder(
      (net): Sequential(
        (0): Linear(in_features=16, out_features=32, bias=True)
        (1): ReLU(inplace=True)
      )
    )
  )
  (temporal_conv): Sequential(
    (0): Conv1d(32, 128, kernel_size=(3,), stride=(1,), padding=(1,))
    (1): BatchNorm1d(128, eps=1e-05, momentum=0.1, affine=True, track_running_stats=True)
    (2): ReLU(inplace=True)
    (3): Dropout(p=0.2, inplace=False)
    (4): Conv1d(128, 128, kernel_size=(3,), stride=(1,), padding=(1,))
    (5): BatchNorm1d(128, eps=1e-05, momentum=0.1, affine=True, track_running_stats=True)
    (6): ReLU(inplace=True)
    (7): Dropout(p=0.2, inplace=False)
    (8): Conv1d(128, 128, kernel_size=(3,), stride=(1,), padding=(1,))
    (9): BatchNorm1d(128, eps=1e-05, momentum=0.1, affine=True, track_running_stats=True)
    (10): ReLU(inplace=True)
    (11): AdaptiveAvgPool1d(output_size=1)
  )
  (classifier): Sequential(
    (0): Linear(in_features=128, out_features=128, bias=True)
    (1): ReLU(inplace=True)
    (2): Dropout(p=0.3, inplace=False)
    (3): Linear(in_features=128, out_features=5, bias=True)
  )
)",129445,129445,./gesture_checkpoints/best_cnn_early_fusion.pt,./logger/20260320_152647__CNN__lr_1e-04__ep_400__body__early_fusion,./logger/20260320_152647__CNN__lr_1e-04__ep_400__body__early_fusion,early_fusion,2026-03-20T15:26:47.865253,20260320_152647__CNN__lr_1e-04__ep_400__body__early_fusion,0.9342105263157896,0.9332174638487208,0.9346084465195248,0.2256536091628827,0.9389705882352942,0.9447078173374612,0.9375,0.9342105263157896,0.9455587392550144,0.2829223504893076,cuda,400,0.0001,False,True,0.0001,0.96,0.2276956148942311
./logger/20260320_152934__CNN__lr_1e-04__ep_400__body+hand__early_fusion/accuracy_curve.png,./logger/20260320_152934__CNN__lr_1e-04__ep_400__body+hand__early_fusion/best_model.pt,./logger/20260320_152934__CNN__lr_1e-04__ep_400__body+hand__early_fusion/confusion_matrix.png,16,"[5, 6, 7, 8, 9, 10, 11, 12]",64,True,hand_dummy/data,64,True,"['go', 'stop', 'left', 'right', 'null']",5,0,42,True,True,0.15,0.7,True,0.15,True,False,True,64,"[112, 112]",./logger/20260320_152934__CNN__lr_1e-04__ep_400__body+hand__early_fusion/loss_curve.png,32,128,0.2,128,0.3,32,False,0.2,128,2,CNN,True,True,64,"GestureCNNClassifier(
  (encoder): MultiModalEarlyFusionEncoder(
    (body_encoder): BodyEncoder(
      (net): Sequential(
        (0): Linear(in_features=16, out_features=32, bias=True)
        (1): ReLU(inplace=True)
      )
    )
    (hand_encoder): HandEncoder(
      (net): Sequential(
        (0): Linear(in_features=42, out_features=32, bias=True)
        (1): ReLU(inplace=True)
      )
    )
  )
  (temporal_conv): Sequential(
    (0): Conv1d(64, 128, kernel_size=(3,), stride=(1,), padding=(1,))
    (1): BatchNorm1d(128, eps=1e-05, momentum=0.1, affine=True, track_running_stats=True)
    (2): ReLU(inplace=True)
    (3): Dropout(p=0.2, inplace=False)
    (4): Conv1d(128, 128, kernel_size=(3,), stride=(1,), padding=(1,))
    (5): BatchNorm1d(128, eps=1e-05, momentum=0.1, affine=True, track_running_stats=True)
    (6): ReLU(inplace=True)
    (7): Dropout(p=0.2, inplace=False)
    (8): Conv1d(128, 128, kernel_size=(3,), stride=(1,), padding=(1,))
    (9): BatchNorm1d(128, eps=1e-05, momentum=0.1, affine=True, track_running_stats=True)
    (10): ReLU(inplace=True)
    (11): AdaptiveAvgPool1d(output_size=1)
  )
  (classifier): Sequential(
    (0): Linear(in_features=128, out_features=128, bias=True)
    (1): ReLU(inplace=True)
    (2): Dropout(p=0.3, inplace=False)
    (3): Linear(in_features=128, out_features=5, bias=True)
  )
)",143109,143109,./gesture_checkpoints/best_cnn_early_fusion.pt,./logger/20260320_152934__CNN__lr_1e-04__ep_400__body+hand__early_fusion,./logger/20260320_152934__CNN__lr_1e-04__ep_400__body+hand__early_fusion,early_fusion,2026-03-20T15:29:34.285014,20260320_152934__CNN__lr_1e-04__ep_400__body+hand__early_fusion,0.9605263157894736,0.9603110599078342,0.9610417171962164,0.0945959289215113,0.9608333333333334,0.9640350877192982,0.9625,0.9605263157894736,0.9799426934097422,0.084508462128547,cuda,400,0.0001,False,True,0.0001,0.9866666666666668,0.0860578450560569
…
